…
td><td class="code"><pre><code class="hljs python"><span class="hljs-comment"># 测试</span><br>basic_block = BasicBlock(<span class="hljs-number">64</span>, <span class="hljs-number">128</span>)<br><span class="hljs-built_in">print</span>(basic_block)<br>x = torch.randn(<span class="hljs-number">2</span>, <span class="hljs-number">64</span>, <span class="hljs-number">32</span>, <span class="hljs-number">32</span>)<br>y = basic_block(x)<br><span class="hljs-built_in">print</span>(y.shape)<br></code></pre></td></tr></table></figure><pre><code class="hljs">BasicBlock(  (features): Sequential(    (0): Conv2d(64, 128, kernel_size=(3, 3), stride=(1, 1), padding=(1, 1), bias=False)    (1): BatchNorm2d(128, eps=1e-05, momentum=0.1, affine=True, track_running_stats=True)    (2): ReLU(inplace=True)    (3): Conv2d(128, 128, kernel_size=(3, 3), stride=(1, 1), padding=(1, 1), bias=False)    (4): BatchNorm2d(128, eps=1e-05, momentum=0.1, affine=True, track_running_stats=True)  )  (shortcut): Sequential(    (0): Conv2d(64, 128, kernel_size=(1, 1), stride=(1, 1), bias=False)    (1): BatchNorm2d(128, eps=1e-05, momentum=0.1, affine=True, track_running_stats=True)  ))torch.Size([2, 128, 32, 32])</code></pre><h3 id="Bottleneck-Block"><a href="#Bottleneck-Block" class="headerlink" title="Bottleneck Block"></a>Bottleneck Block</h3><p><img src="https://madao33-static.oss-cn-hangzhou.aliyuncs.com/madao33blog/post/%E6%B7%B1%E5%BA%A6%E5%AD%A6%E4%B9%A0/resnet/fig5.png" alt="image.png"></p><figure 
…
/td><td class="code"><pre><code class="hljs python"><span class="hljs-comment"># 测试</span><br>bottleneck = Bottleneck(<span class="hljs-number">256</span>, <span class="hljs-number">128</span>)<br><span class="hljs-built_in">print</span>(bottleneck)<br>x = torch.randn(<span class="hljs-number">2</span>, <span class="hljs-number">256</span>, <span class="hljs-number">32</span>, <span class="hljs-number">32</span>)<br>y = bottleneck(x)<br><span class="hljs-built_in">print</span>(y.shape)<br></code></pre></td></tr></table></figure><pre><code class="hljs">Bottleneck(  (features): Sequential(    (0): Conv2d(256, 128, kernel_size=(1, 1), stride=(1, 1), bias=False)    (1): BatchNorm2d(128, eps=1e-05, momentum=0.1, affine=True, track_running_stats=True)    (2): ReLU(inplace=True)    (3): Conv2d(128, 128, kernel_size=(3, 3), stride=(1, 1), padding=(1, 1), bias=False)    (4): BatchNorm2d(128, eps=1e-05, momentum=0.1, affine=True, track_running_stats=True)    (5): ReLU(inplace=True)    (6): Conv2d(128, 512, kernel_size=(1, 1), stride=(1, 1), bias=False)    (7): BatchNorm2d(512, eps=1e-05, momentum=0.1, affine=True, track_running_stats=True)  )  (shortcut): Sequential(    (0): Conv2d(256, 512, kernel_size=(1, 1), stride=(1, 1), bias=False)    (1): BatchNorm2d(512, eps=1e-05, momentum=0.1, affine=True, track_running_stats=True)  ))torch.Size([2, 512, 32, 32])</code></pre><h3 id="ResNet"><a href="#ResNet" class="headerlink" title="ResNet"></a>ResNet</h3><p><img src="https://madao33-static.oss-cn-hangzhou.aliyuncs.com/madao33blog/post/%E6%B7%B1%E5%BA%A6%E5%AD%A6%E4%B9%A0/resnet/fig3.png" alt="image.png"></p><figure class="highlight python"><table><tr><td 
…
class="line">5</span><br><span class="line">6</span><br></pre></td><td class="code"><pre><code class="hljs python">net = ResNet34().to(device)<br><span class="hljs-built_in">print</span>(net)<br><span class="hljs-keyword">if</span> device == <span class="hljs-string">&#x27;cuda&#x27;</span>:<br>    net = nn.DataParallel(net)<br>    <span class="hljs-comment"># 当计算图不会改变的时候（每次输入形状相同，模型不改变）的情况下可以提高性能，反之则降低性能</span><br>    torch.backends.cudnn.benchmark = <span class="hljs-literal">True</span><br></code></pre></td></tr></table></figure><pre><code class="hljs">ResNet(  (features): Sequential(    (0): Conv2d(3, 64, kernel_size=(3, 3), stride=(1, 1), padding=(1, 1), bias=False)    (1): BatchNorm2d(64, eps=1e-05, momentum=0.1, affine=True, track_running_stats=True)    (2): ReLU(inplace=True)  )  (layer1): Sequential(    (0): BasicBlock(      (features): Sequential(        (0): Conv2d(64, 64, kernel_size=(3, 3), stride=(1, 1), padding=(1, 1), bias=False)        (1): BatchNorm2d(64, eps=1e-05, momentum=0.1, affine=True, track_running_stats=True)        (2): ReLU(inplace=True)        (3): Conv2d(64, 64, kernel_size=(3, 3), stride=(1, 1), padding=(1, 1), bias=False)        (4): BatchNorm2d(64, eps=1e-05, momentum=0.1, affine=True, track_running_stats=True)      )      (shortcut): Sequential()    )    (1): BasicBlock(      (features): Sequential(        (0): Conv2d(64, 64, kernel_size=(3, 3), stride=(1, 1), padding=(1, 1), bias=False)        (1): BatchNorm2d(64, eps=1e-05, momentum=0.1, affine=True, track_running_stats=True)        (2): ReLU(inplace=True)        (3): Conv2d(64, 64, kernel_size=(3, 3), stride=(1, 1), padding=(1, 1), bias=False)        (4): BatchNorm2d(64, eps=1e-05, momentum=0.1, affine=True, track_running_stats=True)      )      (shortcut): Sequential()    )    (2): BasicBlock(      (features): Sequential(        (0): Conv2d(64, 64, kernel_size=(3, 3), stride=(1, 1), padding=(1, 1), bias=False)        (1): BatchNorm2d(64, eps=1e-05, momentum=0.1, affine=True, track_running_stats=True)        (2): ReLU(inplace=True)        (3): Conv2d(64, 64, kernel_size=(3, 3), stride=(1, 1), padding=(1, 1), bias=False)        (4): BatchNorm2d(64, eps=1e-05, momentum=0.1, affine=True, track_running_stats=True)      )      (shortcut): Sequential()    )  )  (layer2): Sequential(    (0): BasicBlock(      (features): Sequential(        (0): Conv2d(64, 128, kernel_size=(3, 3), stride=(2, 2), padding=(1, 1), bias=False)        (1): BatchNorm2d(128, eps=1e-05, momentum=0.1, affine=True, track_running_stats=True)        (2): ReLU(inplace=True)        (3): Conv2d(128, 128, kernel_size=(3, 3), stride=(1, 1), padding=(1, 1), bias=False)        (4): BatchNorm2d(128, eps=1e-05, momentum=0.1, affine=True, track_running_stats=True)      )      (shortcut): Sequential(        (0): Conv2d(64, 128, kernel_size=(1, 1), stride=(2, 2), bias=False)        (1): BatchNorm2d(128, eps=1e-05, momentum=0.1, affine=True, track_running_stats=True)      )    )    (1): BasicBlock(      (features): Sequential(        (0): Conv2d(128, 128, kernel_size=(3, 3), stride=(1, 1), padding=(1, 1), bias=False)        (1): BatchNorm2d(128, eps=1e-05, momentum=0.1, affine=True, track_running_stats=True)        (2): ReLU(inplace=True)        (3): Conv2d(128, 128, kernel_size=(3, 3), stride=(1, 1), padding=(1, 1), bias=False)        (4): BatchNorm2d(128, eps=1e-05, momentum=0.1, affine=True, track_running_stats=True)      )      (shortcut): Sequential()    )    (2): BasicBlock(      (features): Sequential(        (0): Conv2d(128, 128, kernel_size=(3, 3), stride=(1, 1), padding=(1, 1), bias=False)        (1): BatchNorm2d(128, eps=1e-05, momentum=0.1, affine=True, track_running_stats=True)        (2): ReLU(inplace=True)        (3): Conv2d(128, 128, kernel_size=(3, 3), stride=(1, 1), padding=(1, 1), bias=False)        (4): BatchNorm2d(128, eps=1e-05, momentum=0.1, affine=True, track_running_stats=True)      )      (shortcut): Sequential()    )    (3): BasicBlock(      (features): Sequential(        (0): Conv2d(128, 128, kernel_size=(3, 3), stride=(1, 1), padding=(1, 1), bias=False)        (1): BatchNorm2d(128, eps=1e-05, momentum=0.1, affine=True, track_running_stats=True)        (2): ReLU(inplace=True)        (3): Conv2d(128, 128, kernel_size=(3, 3), stride=(1, 1), padding=(1, 1), bias=False)        (4): BatchNorm2d(128, eps=1e-05, momentum=0.1, affine=True, track_running_stats=True)      )      (shortcut): Sequential()    )  )  (layer3): Sequential(    (0): BasicBlock(      (features): Sequential(        (0): Conv2d(128, 256, kernel_size=(3, 3), stride=(2, 2), padding=(1, 1), bias=False)        (1): BatchNorm2d(256, eps=1e-05, momentum=0.1, affine=True, track_running_stats=True)        (2): ReLU(inplace=True)        (3): Conv2d(256, 256, kernel_size=(3, 3), stride=(1, 1), padding=(1, 1), bias=False)        (4): BatchNorm2d(256, eps=1e-05, momentum=0.1, affine=True, track_running_stats=True)      )      (shortcut): Sequential(        (0): Conv2d(128, 256, kernel_size=(1, 1), stride=(2, 2), bias=False)        (1): BatchNorm2d(256, eps=1e-05, momentum=0.1, affine=True, track_running_stats=True)      )    )    (1): BasicBlock(      (features): Sequential(        (0): Conv2d(256, 256, kernel_size=(3, 3), stride=(1, 1), padding=(1, 1), bias=False)        (1): BatchNorm2d(256, eps=1e-05, momentum=0.1, affine=True, track_running_stats=True)        (2): ReLU(inplace=True)        (3): Conv2d(256, 256, kernel_size=(3, 3), stride=(1, 1), padding=(1, 1), bias=False)        (4): BatchNorm2d(256, eps=1e-05, momentum=0.1, affine=True, track_running_stats=True)      )      (shortcut): Sequential()    )    (2): BasicBlock(      (features): Sequential(        (0): Conv2d(256, 256, kernel_size=(3, 3), stride=(1, 1), padding=(1, 1), bias=False)        (1): BatchNorm2d(256, eps=1e-05, momentum=0.1, affine=True, track_running_stats=True)        (2): ReLU(inplace=True)        (3): Conv2d(256, 256, kernel_size=(3, 3), stride=(1, 1), padding=(1, 1), bias=False)        (4): BatchNorm2d(256, eps=1e-05, momentum=0.1, affine=True, track_running_stats=True)      )      (shortcut): Sequential()    )    (3): BasicBlock(      (features): Sequential(        (0): Conv2d(256, 256, kernel_size=(3, 3), stride=(1, 1), padding=(1, 1), bias=False)        (1): BatchNorm2d(256, eps=1e-05, momentum=0.1, affine=True, track_running_stats=True)        (2): ReLU(inplace=True)        (3): Conv2d(256, 256, kernel_size=(3, 3), stride=(1, 1), padding=(1, 1), bias=False)        (4): BatchNorm2d(256, eps=1e-05, momentum=0.1, affine=True, track_running_stats=True)      )      (shortcut): Sequential()    )    (4): BasicBlock(      (features): Sequential(        (0): Conv2d(256, 256, kernel_size=(3, 3), stride=(1, 1), padding=(1, 1), bias=False)        (1): BatchNorm2d(256, eps=1e-05, momentum=0.1, affine=True, track_running_stats=True)        (2): ReLU(inplace=True)        (3): Conv2d(256, 256, kernel_size=(3, 3), stride=(1, 1), padding=(1, 1), bias=False)        (4): BatchNorm2d(256, eps=1e-05, momentum=0.1, affine=True, track_running_stats=True)      )      (shortcut): Sequential()    )    (5): BasicBlock(      (features): Sequential(        (0): Conv2d(256, 256, kernel_size=(3, 3), stride=(1, 1), padding=(1, 1), bias=False)        (1): BatchNorm2d(256, eps=1e-05, momentum=0.1, affine=True, track_running_stats=True)        (2): ReLU(inplace=True)        (3): Conv2d(256, 256, kernel_size=(3, 3), stride=(1, 1), padding=(1, 1), bias=False)        (4): BatchNorm2d(256, eps=1e-05, momentum=0.1, affine=True, track_running_stats=True)      )      (shortcut): Sequential()    )  )  (layer4): Sequential(    (0): BasicBlock(      (features): Sequential(        (0): Conv2d(256, 512, kernel_size=(3, 3), stride=(2, 2), padding=(1, 1), bias=False)        (1): BatchNorm2d(512, eps=1e-05, momentum=0.1, affine=True, track_running_stats=True)        (2): ReLU(inplace=True)        (3): Conv2d(512, 512, kernel_size=(3, 3), stride=(1, 1), padding=(1, 1), bias=False)        (4): BatchNorm2d(512, eps=1e-05, momentum=0.1, affine=True, track_running_stats=True)      )      (shortcut): Sequential(        (0): Conv2d(256, 512, kernel_size=(1, 1), stride=(2, 2), bias=False)        (1): BatchNorm2d(512, eps=1e-05, momentum=0.1, affine=True, track_running_stats=True)      )    )    (1): BasicBlock(      (features): Sequential(        (0): Conv2d(512, 512, kernel_size=(3, 3), stride=(1, 1), padding=(1, 1), bias=False)        (1): BatchNorm2d(512, eps=1e-05, momentum=0.1, affine=True, track_running_stats=True)        (2): ReLU(inplace=True)        (3): Conv2d(512, 512, kernel_size=(3, 3), stride=(1, 1), padding=(1, 1), bias=False)        (4): BatchNorm2d(512, eps=1e-05, momentum=0.1, affine=True, track_running_stats=True)      )      (shortcut): Sequential()    )    (2): BasicBlock(      (features): Sequential(        (0): Conv2d(512, 512, kernel_size=(3, 3), stride=(1, 1), padding=(1, 1), bias=False)        (1): BatchNorm2d(512, eps=1e-05, momentum=0.1, affine=True, track_running_stats=True)        (2): ReLU(inplace=True)        (3): Conv2d(512, 512, kernel_size=(3, 3), stride=(1, 1), padding=(1, 1), bias=False)        (4): BatchNorm2d(512, eps=1e-05, momentum=0.1, affine=True, track_running_stats=True)      )      (shortcut): Sequential()    )  )  (avg_pool): AvgPool2d(kernel_size=4, stride=4, padding=0)  (classifer): Linear(in_features=512, out_features=10, bias=True))</code></pre><figure class="highlight python"><table><tr><td class="gutter"><pre><span class="line">1</span><br><span class="line">2</span><br><span class="line">3</span><br><span class="line">4</span><br></pre></td><td class="code"><pre><code class="hljs python"><span class="hljs-comment"># 测试</span><br>x = torch.randn(<span class="hljs-number">2</span
…
